models/ffn_model.pt (torch, 23943 bytes, 10 tensors)

fc1.weight f4 [32, 17]
00000000: c5d9 73bc 8fa0 abbc 4fda 78bc 4b2f 62bc
00000010: 7b21 3e3d d2c5 88bc 306f fdbb a7e7 31bd
00000020: 6227 fb3b 51ad d4bc 6e0c 84bc 448d 05bc
00000030: 10a6 2339 1883 b63c 0c65 823a dc91 a9bc
00000040: 7880 78bc 2dd0 263e 2b69 c53d ffdd 933f
00000050: 3c7e 1abd 523b d7bd e744 7cbb 3edb e43d
00000060: 13ed 65bc f0a4 183e 5036 173e 4851 1f3c
00000070: 6b61 79be 611d c8bd 0854 373e 8024 a13d
00000080: b962 de3d 4a14 49bd dcb9 c9bd 828f 213d
00000090: dc52 6f3f a669 043d e559 7a3d a9b6 29be
000000a0: fb5d adbc 5b33 4bbe 5d85 e43d d421 31be
000000b0: ab09 123e d1d5 febd d953 c6be 4577 dc3d
000000c0: 0cc9 6dbe 2e26 703d 22ea 10be 185f 9c2b
000000d0: 58fa 9baf e21a 542b aae7 38ba 1e5a 772c
000000e0: 0bb8 61ac 8da9 b12c 4008 a12b 88f4 31a9
000000f0: 3f4a 9e2c 6534 402c 0545 7b2c 02ad 2828
00000100: fb43 77ac 92e5 32a8 76da 9fa8 186a edb1
00000110: 4690 973e ba5c 2a3e d1cb 89bf c71d d6bc
00000120: 0bb9 3f3d 2aa4 7abe 03bf cdbd 849b bebe
00000130: 0fc4 d7bd 269b ad3d 1d25 273e b1bd d3be
00000140: eadc 0e3e d99c 25be 3337 40bb df95 653e
00000150: 4640 e13d 2e50 cd3c 7c5b a2bc 9cf4 1eba
00000160: c2e5 22bb 53f4 e4ba acfe e7bb 2c97 55bc
00000170: cc89 223c 84a3 2f29 ccdb 50bc 6eb4 373c
00000180: e723 b6bc 745d 2629 1d52 3fbc 717a 073d
00000190: 7dfb ffbc bb2e d6bb f384 0780 7054 8dae
000001a0: 1eab 0300 002c 9cb8 99c2 0100 39c5 0000
000001b0: 1cdb 0000 b75c 0300 5dac 0480 2678 0000
000001c0: cb30 0200 cc91 0000 4fcb 0680 7085 0100
000001d0: 192f 0300 38c6 0080 baaf 49b1 5cf4 0080
000001e0: b88b 26b8 fdd6 0091 58d8 edba 244e 0180
000001f0: 6ba0 ee9c cc47 f419 ad14 0000 2f8d 0300
00000200: 8a9c 1f25 5683 0908 4468 0000 b71f 0180
00000210: a95e 0100 29dd 0100 cd0a 0480 04df 9db8
00000220: 2b5d 0380 7c88 b7bb de49 86ab 15d4 babc
00000230: 2f66 839b e656 adaa 62b4 45a8 6f3e 0b95
00000240: 3813 0500 dc3e 94b4 d7c5 0da1 998f 0000
00000250: 0e94 0100 b9cf e5ad ea76 54a0 bcaa 9191
00000260: b1b8 bcbb 1ac0 fdbd 8a04 483c ef6e 2d3f
00000270: 8c40 4e3d 18a6 423d e6b7 a53d 98c0 fdbc
00000280: 071e 1c3e c15b 7d3e be40 88be 333b 34bc
00000290: 1990 e7be 9ed7 173e 27df 0d3e 397f 82be
000002a0: 8066 783e 89a0 41be c131 36be 7842 82bd
000002b0: 2ace 95bf aa26 223e 5d00 4d3e 6e83 53bd
000002c0: 2dab a1bd d94e 493d 8eb7 febd 27b6 a7bd
000002d0: 45da 13be 97b8 e53c 7dcb c03e 46ec 0a3d
000002e0: f67f 0ebe 7142 febc e170 ffbd 6d09 3e3d
000002f0: 9fbb 5c3d 7785 4a3f 0763 493d f989 403d
00000300: 3621 8cbe 3716 65be 5128 a23d 9cde f6bd
00000310: 84cf 06be edc3 553d 6f0f c43c ba47 503e
00000320: 3bf5 d8be 23c1 1e3d 3e82 89bd 9f44 94bd
00000330: 6ec4 0100 1b76 0380 55f7 0180 ee7d eea8
00000340: 7045 0300 9502 0280 3148 0280 c2db 0000
00000350: eb1f 0000 142c 0280 06c2 0180 8eac 0000
00000360: 5bb1 0100 a726 0180 2a14 0180 3f1f 0000
00000370: d6e6 0280 656c 0600 578c 5ca4 40ec 0380
00000380: af45 89b5 fe3f 0180 7157 0380 cc60 0480
00000390: 4cf2 0400 95f5 04b1 2058 0180 d492 0600
000003a0: 2344 0480 f0e9 0300 22ac 0280 5965 0600
000003b0: 2bf9 0280 5963 90a4 ad08 b0b6 29ee 82bc
000003c0: 6222 8cb9 7a2e 07bc 65c6 ddb6 4660 98ba
000003d0: 4c0e 7538 aa9c 8633 970a 0380 4dc5 42ba
000003e0: bc10 81b8 81fd 2836 316d fd22 f94d c0b9
000003f0: 4010 4037 2c6f d437 ab8f 14bc c587 0680
-0.014883463 -0.020950584 -0.015188768 -0.013805221 0.04641865 -0.01669589 -0.007734202 -0.04343381
0.007664607 -0.02596155 -0.016119208 -0.008151356 0.00015606754 0.022279307 0.0009948327 -0.020699434
-0.015167348 0.1629035 0.096392 1.1552123 -0.037718043 -0.10509361 -0.0038493217 0.1117463
-0.014033574 0.14906669 0.14766812 0.009723969 -0.24353568 -0.097712286 0.17903149 0.0786829
0.108586736 -0.049091615 -0.09849903 0.0394435 0.9348581 0.032327317 0.061120886 -0.16573586
-0.021162977 -0.1984381 0.111582495 -0.1729806 0.142615 -0.12443126 -0.38735846 0.10764936
-0.23221225 0.05863016 -0.14151815 1.111086e-12 -2.8372216e-10 7.535484e-13 -0.00070535636 3.5150836e-12
-3.2076587e-12 5.0494665e-12 1.1442028e-12 -3.9513992e-14 4.498873e-12 2.7313926e-12 3.5707559e-12 9.3633885e-15
-3.5138548e-12 -9.930765e-15 -1.7747288e-14 -6.9096693e-09 0.2960226 0.16636935 -1.0765325 -0.026137246
0.04680733 -0.24476686 -0.10046198 -0.37228024 -0.10535442 0.08476858 0.16322751 -0.4135566
0.1395146 -0.16173114 -0.0029329776 0.22420453 0.10998587 0.025062647 -0.019819014 -0.00060636713
-0.0024856185 -0.0017467834 -0.00707992 -0.01303653 0.009920549 3.8999633e-14 -0.012747716 0.011212451
-0.022233916 3.6940462e-14 -0.011677292 0.033075754 -0.031247849 -0.0065363324 -6.90542e-40 -6.426937e-11
3.36892e-40 -7.446855e-05 1.61644e-40 7.075e-41 7.8602e-41 3.08766e-40 -4.29174e-40 4.3101e-41
2.01175e-40 5.2302e-41 -6.23946e-40 1.39704e-40 2.92402e-40 -7.1107e-41 -2.9349239e-09 -8.766e-41
-3.9707607e-05 -1.0163668e-28 -0.001814614 -1.19867e-40 -1.5790986e-21 2.5258007e-23 7.417e-42 3.26154e-40
1.3844089e-16 4.1381323e-34 3.7403e-41 -1.03213e-40 1.25793e-40 1.71173e-40 -3.71217e-40 -7.527883e-05
-3.08929e-40 -0.005600987 -9.541775e-13 -0.022806207 -2.1738167e-22 -3.079127e-13 -1.0974811e-14 -2.8120078e-26
4.66072e-40 -2.7612884e-07 -4.8034497e-19 5.1513e-41 1.44948e-40 -2.6126533e-11 -1.7996444e-19 -2.298219e-28
-0.0057593216 -0.12390156 0.012208113 0.67747396 0.050354525 0.04752168 0.080917165 -0.030975625
0.1524583 0.24742033 -0.26611894 -0.011000442 -0.45227125 0.14828345 0.13854657 -0.25487688
0.2425785 -0.18908896 -0.17792417 -0.06360334 -1.1703541 0.15835062 0.2001967 -0.051639013
-0.07893977 0.04914746 -0.12437354 -0.0818904 -0.14438732 0.02804212 0.3765525 0.033916734
-0.13916 -0.031037541 -0.12472702 0.046395708 0.053889867 0.791099 0.049166705 0.04700658
-0.27369088 -0.22371756 0.07917846 -0.12054178 -0.13165098 0.052188803 0.02393314 0.20339862
-0.42374596 0.03875841 -0.06714295 -0.07239651 1.62301e-40 -3.17875e-40 -1.80562e-40 -2.6477921e-14
3.00416e-40 -1.84597e-40 -2.09568e-40 7.8834e-41 1.145e-41 -1.99483e-40 -1.61438e-40 6.1901e-41
1.55459e-40 -1.05701e-40 -9.9069e-41 1.1209e-41 -2.6648e-40 5.89898e-40 -4.7823768e-17 -3.60257e-40
-1.0227576e-06 -1.14792e-40 -3.06875e-40 -4.02066e-40 4.54262e-40 -1.9348125e-09 -1.23449e-40 6.03685e-40
-3.91785e-40 3.59427e-40 -2.4542e-40 5.8737e-40 -2.73056e-40 -6.2618347e-17 -5.2462187e-06 -0.015982704
-0.00026728498 -0.008250827 -6.6094094e-06 -0.0011625371 5.8425867e-05 6.268358e-08 -2.79305e-40 -0.0007429913
-6.154316e-05 2.518151e-06 6.86914e-18 -0.00036679188 1.1447875e-05 2.5324138e-05 -0.009067456 -5.99718e-40

fc1.bias f4 [32]
00000000: dd94 83bc 7fc3 903f 78df 413f dbc3 7a2c
00000010: 6e79 71bf b0b9 05bb 577c 0200 4760 0380
00000020: 77ba cd9c 9b73 433f ab3e 7dbf 8d72 053f
00000030: e17e 0180 c821 0180 db6e a3b7 101b ff07
00000040: 9c96 32bf b4f9 0100 dd7e 643f d77b 17b8
00000050: 79e9 51bf a511 2c3f ae7b 0400 fb08 0100
00000060: d3bf 0080 5b4e 1dbf 9d3a 67bc 7510 21bf
00000070: f179 b6ac 28c2 0580 0c7a 4008 f779 27bf
-0.016062194 1.1309661 0.7573161 3.5635858e-12 -0.9432591 -0.0020404868 2.28276e-40 -3.10044e-40
-1.3613962e-21 0.76348275 -0.9892375 0.52127916 -1.37351e-40 -1.03954e-40 -1.9482735e-05 3.8384042e-34
-0.6976106 1.81412e-40 0.8925608 -3.611654e-05 -0.81996876 0.67214423 4.1171e-40 9.5057e-41
-6.8814e-41 -0.61447686 -0.014113096 -0.62915736 -5.1862893e-12 -5.28828e-40 5.7921364e-34 -0.6542048

fc2.weight f4 [64, 32]
00000000: a905 0400 be2b 7ea4 a1cf bd9f be3a 4537
00000010: 4cf3 c807 980b 0100 5d68 0300 5f41 0400
00000020: ce07 0500 ceb3 f303 a547 f6b4 94d3 9db5
00000030: a458 8eb6 e5d6 0380 1117 0080 2342 0300
00000040: 98fb 19b8 8805 0280 13fe 47ab aaa8 0280
00000050: 09b9 8e9d 6321 c9a0 b23c 0400 d688 0280
00000060: 3ae8 47ae e18f 88b1 ba72 0100 7b49 0500
00000070: 1cfb 0500 470e 0580 e09e 0680 1b49 79b5
00000080: 57b3 913c 9e5b bfbe bf25 ec3d b1ef f3a9
00000090: 424e a03e 2d28 3abc d47d 0100 792e c1b0
000000a0: eb50 3f38 0afb 21be 32d0 243e 4bc6 b0bd
000000b0: 484c 0200 70ba 0280 f730 87bb 2c73 3432
000000c0: 7a41 bf3c 63dc c533 2f29 9ebd d466 eb3b
000000d0: 34dc 253e 45d0 e6bd e3a3 0280 f6b8 72b8
000000e0: 83b8 0180 6b95 c53c 9cb6 703c 4703 513e
000000f0: fee8 b7ba 79d3 0180 028d f139 fca2 343e
00000100: 825d 0400 601c dab9 1943 f4b5 007e b31b
00000110: 2c21 b4b9 bb86 0580 56d1 422c 1301 0180
00000120: 6cf0 0034 1b59 25a9 74dd 45bb cd1e bbba
00000130: 8a61 d531 f26c a9b0 8654 0680 6ee9 0480
00000140: 158b 21bc af91 0780 4618 1fb8 3cf1 0680
00000150: 27c8 8fba 53b2 54b8 9776 0600 1675 0100
00000160: f01e 0380 2d05 b7b9 e032 d41d 765e a7b4
00000170: 4f55 0780 21b8 beb8 528c 0200 b82c 9cbb
00000180: 5cf6 9327 8433 a6bb d163 70bb bd5b 5da7
00000190: dcc9 35ba eb48 d024 e1ed 0000 b56a 0000
000001a0: 0da0 0080 dc14 4b3a 1514 88bc 8392 35bc
000001b0: f345 4131 65eb 0500 8a34 0180 3448 0080
000001c0: 352c b3bc 9df4 0300 589c 21bc 04ad 0280
000001d0: b5b0 57ba 5a6f a939 baec 0180 3b80 0200
000001e0: 8c1e 0580 9049 34bc 3eca 0300 021c 48b7
000001f0: 1ccd 0680 ce4a 0200 84f7 0400 4381 87bc
00000200: e98d cc3c f2fa b03e 521d 303e 5ec4 d5aa
00000210: 7862 9abe 44a4 5a3c a03d 0080 b70a d5a9
00000220: 5901 d2b4 c905 873d 3fbc 52be 8f3e d13d
00000230: 951c 0380 7c6e 0280 9f23 ab39 8da1 ee17
00000240: b667 51bd 2103 5ab4 6cb1 303e e6e7 443a
00000250: ae1e 6abe 14ed 003e 3f82 0600 4c59 8236
00000260: 4b27 0200 416b 96bd d58d d3bc f570 f6bc
00000270: 194b a037 78b8 0100 2ab4 32ba 7e90 8abd
00000280: da10 dd2b d9f1 b8bb fd62 88bb 8020 dfa6
00000290: 5de3 a5b4 ba3b 1fa8 8fef 1529 7c91 0400
000002a0: 4503 0480 6698 85b9 8f1d 4cbc 7cbc 18bc
000002b0: 6278 beaa 9f82 0280 6101 0480 813c 0400
000002c0: 3b51 9dbc a21d 0580 c807 dcbb 9678 0400
000002d0: 5748 d9b9 91f2 33bb e689 0300 7fab 0080
000002e0: c1a5 0780 4d01 d0bb 4101 a89e 6007 e831
000002f0: 8ef1 0080 6468 0280 4edc 60a8 dfbc 76bc
00000300: a293 533d fa37 bdbe a6db 1bbe 8dfc 012a
00000310: 4906 553e 03ef ff3b e06c 9519 a4d9 abb1
00000320: ba7e d137 fcb8 31be fdc0 853e 4c88 1d3d
00000330: 5663 0200 2017 0080 67af 9d39 64a0 1835
00000340: 1494 e13d 05d5 b636 aac5 72be bfcb bf3a
00000350: 98c3 3d3e 54a6 49bd dde1 0000 827e 79b8
00000360: 395e 0180 9214 a7bb 9aa2 2fbb a23e ca3d
00000370: 36f5 59ba 93f3 0180 89a5 1f3a 55b8 983b
00000380: 99a4 8d3c 0a16 58be 8d67 d83c 1a02 ddac
00000390: 76c9 703e 26c5 8dbc cf35 0480 1103 e928
000003a0: 6ca0 9937 a5bb 03be fedb 5d3d 197d 3cbe
000003b0: 600a 0200 ff1e 0600 e690 c5b7 b38e 7e1a
000003c0: 7f6e a53e e23f bc32 70ef 0dbe cbb8 a73b
000003d0: 18a2 123e 1f43 b83c 40d8 0680 9ecc 86af
000003e0: 2e7b 0180 6bdb 64be 921f 023d 4177 743e
000003f0: cb69 4cb9 f723 0280 a1ed 5339 3b6b 1b3d
3.69372e-40 -5.511452e-17 -8.0388107e-20 1.1755792e-05 3.0235652e-34 9.5995e-41 3.12945e-40 3.90793e-40
4.61977e-40 1.43235375e-36 -4.58732e-07 -1.1758989e-06 -4.242249e-06 -3.52596e-40 -8.275e-42 2.99232e-40
-3.6712358e-05 -1.85655e-40 -7.10516e-13 -2.44176e-40 -3.777841e-21 -3.4072818e-19 3.89115e-40 -2.32758e-40
-4.545362e-11 -3.974478e-09 1.32992e-40 4.85537e-40 5.49259e-40 -4.64299e-40 -6.08007e-40 -9.286611e-07
0.017785711 -0.37374586 0.11530637 -1.08329476e-13 0.31309706 -0.011362118 1.36974e-40 -1.4055807e-09
4.561331e-05 -0.1581842 0.16095045 -0.086315714 2.11036e-40 -2.50552e-40 -0.00412571 1.0503566e-08
0.023346651 9.2136155e-08 -0.07722699 0.007183889 0.16197282 -0.11270193 -2.42462e-40 -5.7869554e-05
-1.58026e-40 0.0241191 0.014691975 0.20411406 -0.0014031229 -1.67698e-40 0.0004607216 0.17640299
4.00886e-40 -0.0004160134 -1.8198945e-06 2.9694492e-22 -0.0003435699 -5.0751e-40 2.7685263e-12 -9.2221e-41
1.2008394e-07 -3.6714646e-14 -0.003019181 -0.0014276147 6.210205e-09 -1.2327332e-09 -5.81334e-40 -4.51081e-40
-0.00985982 -6.9511e-40 -3.793116e-05 -6.37552e-40 -0.0010969684 -5.0710816e-05 5.93555e-40 1.33838e-40
-2.86605e-40 -0.00034908336 5.6168536e-21 -3.1174903e-07 -6.73451e-40 -9.094203e-05 2.34008e-40 -0.004766073
4.10678e-15 -0.005072059 -0.003668059 -3.0719642e-15 -0.00069346814 9.032915e-17 8.5335e-41 3.8279e-41
-5.7415e-41 0.0007746944 -0.016611138 -0.011082294 2.8124958e-09 5.43621e-40 -1.10683e-40 -2.5902e-41
-0.021871665 3.63257e-40 -0.009863935 -2.45737e-40 -0.00082279305 0.00032317155 -1.76757e-40 2.29671e-40
-4.70136e-40 -0.011003867 3.48057e-40 -1.192745e-05 -6.24592e-40 2.10506e-40 4.56134e-40 -0.016541129
0.024970012 0.34566456 0.17198685 -3.7972658e-13 -0.3015325 0.013344828 -2.2107e-41 -9.460959e-14
-3.911653e-07 0.065929 -0.20579623 0.1021701 -2.8576e-40 -2.23305e-40 0.000326422 1.5421171e-24
-0.051124297 -2.030397e-07 0.17255181 0.0007511362 -0.22863266 0.12590438 5.97736e-40 3.8846974e-06
1.97767e-40 -0.07344676 -0.025824467 -0.030083159 1.9108456e-05 1.5801e-40 -0.00068170077 -0.06765841
1.5707672e-12 -0.005644065 -0.004162191 -1.5482543e-15 -3.0899074e-07 -8.839224e-15 3.329243e-14 4.19532e-40
-3.68515e-40 -0.00025481283 -0.012458219 -0.009322282 -3.3834312e-13 -2.30529e-40 -3.67837e-40 3.89047e-40
-0.019203773 -4.69808e-40 -0.006714795 4.106e-40 -0.00041443363 -0.0027457813 3.24975e-40 -6.1521e-41
-7.0231e-40 -0.0063478113 -1.778821e-20 6.752927e-09 -8.6653e-41 -2.21119e-40 -1.2482269e-14 -0.015059679
0.051654465 -0.3695677 -0.15220508 1.1545123e-13 0.20803179 0.007810475 1.5450213e-23 -5.001498e-09
2.4973753e-05 -0.17355722 0.261238 0.03846006 2.19306e-40 -8.296e-42 0.00030076058 5.685781e-07
0.11014572 5.4488214e-06 -0.23708215 0.0014632865 0.18531644 -0.04923089 8.1024e-41 -5.9484046e-05
-1.25636e-40 -0.0050988877 -0.00267998 0.098752275 -0.00083144323 -1.79213e-40 0.00060900353 0.004660646
0.0172904 -0.21102157 0.026416564 -6.281431e-12 0.23514351 -0.017305922 -3.86645e-40 2.5869526e-14
1.8313724e-05 -0.1286455 0.05416488 -0.18407096 1.87393e-40 5.62132e-40 -2.3551704e-05 5.264124e-23
0.32310864 2.1915131e-08 -0.1386087 0.0051184646 0.14319646 0.022492943 -6.28589e-40 -2.4519847e-10
-1.36024e-40 -0.22349326 0.03176839 0.23873617 -0.00019494367 -1.96573e-40 0.00020211052 0.03794406

fc2.bias f4 [64]
00000000: 3e22 f106 a44d 07bf 11af 58b4 5a67 adb9
00000010: 60b4 bf3e 399b a7ba 2514 11bf 1463 6cbe
00000020: 43cd b0be dc16 cc3e 075a 699e adaa 0080
00000030: 9642 0100 da23 193f a436 de3e ae9d 96bb
00000040: 4626 08be c2ed 2c3f 0438 cd3e 3ebb 303f
00000050: 6d16 fcbe 3c80 1da7 d047 6b3e fc84 f9be
00000060: 45e9 458c bc15 4f38 c607 0300 36a7 3434
00000070: 38a6 13be d2bd 97be 5fac 49be 87dc bcbe
00000080: 4905 55a7 8125 59b9 cd13 82be dd56 ad3e
00000090: d68e deb6 6b0b 900a 1854 7180 c8f2 5fb2
000000a0: 9cf0 ba3c 6f47 e0be 4b31 e13e ad63 6fbe
000000b0: 28b0 813e f0a7 0200 92f8 bc3e 57fc cfa3
000000c0: 93fa c5be fc7c 3cbe ac54 cf90 05b8 0600
000000d0: f868 5c94 8c24 2fbe 719b 66ba 1bef 8bbc
000000e0: 1aab 6bbe d8e2 0380 6d4c 35bb 2e28 68be
000000f0: f4c9 1d3f b195 cbbe 28f9 d3bd 8e50 1b3f
9.070444e-35 -0.52852845 -2.0180256e-07 -0.00033074134 0.37442303 -0.0012787349 -0.56671363 -0.2308467
-0.34531602 0.3986119 -1.23535345e-20 -6.1227e-41 1.15722e-40 0.5982033 0.43401062 -0.0045964336
-0.1329585 0.6755029 0.400818 0.6903571 -0.4923586 -2.1857643e-15 0.22976613 -0.48734272
-1.5246525e-31 4.9372888e-05 2.78295e-40 1.6824637e-07 -0.14418876 -0.2963701 -0.1969466 -0.36887
-2.9562553e-15 -0.00020708704 -0.25405732 0.33855334 -6.632744e-06 1.387099e-32 -1.0407578e-38 -1.30355104e-08
0.02281981 -0.438045 0.4398292 -0.23377867 0.2532971 2.43916e-40 0.36908394 -2.2549855e-17
-0.38667735 -0.18407053 -8.177756e-29 6.17027e-40 -1.1127863e-26 -0.17103785 -0.0008796966 -0.017081788
-0.23014489 -3.56883e-40 -0.0027663962 -0.22671577 0.6163628 -0.39762643 -0.10350257 0.6066979

fc3.weight f4 [32, 64]
00000000: 3670 2495 8e9c b5bd abf8 fc39 89b2 c5bb
00000010: dafa da3d 6f83 8c3a 37ee b0bd e716 063d
00000020: 777e 9bbd f5fb b93d b27a a8b4 7da1 0000
00000030: 5a6c 0400 fd4d 3f3e 8c8f 4b3e ea57 10bb
00000040: 1612 fa3c bafd 393e 7d48 e93d 9e42 563e
00000050: f5a5 a5bd 51ad d2b3 e1ae dd3d 5023 45be
00000060: b446 8b32 707b 1c36 812f 0200 9cde 12b6
00000070: 2792 c63c 6286 57bd 9daf 323c 344a 8abd
00000080: 2252 90a6 6d04 ffbb cb96 083c 1280 da3d
00000090: 47e7 1036 9ead c08c 4efa 612b 758c 34b5
000000a0: 698d f03b f9e5 9abd eb73 173e 6d06 b13c
000000b0: b780 92b9 3b97 3d88 79f6 c33d 12d9 26b1
000000c0: ffbd 54bd 766e 983c 0346 0400 6aa0 9300
000000d0: b29c 2a2e abde b03c 0601 1db8 3b08 3dbc
000000e0: 31ab 9c3c ba40 c09e 77b7 593c 4d0d 1a3d
000000f0: f5c5 573e b589 2fbe 2a9c fc3c 6d81 263e
00000100: a23c 0680 ab41 e43b 1612 bfb0 6935 5939
00000110: 3c97 a93c bf93 4e35 302c 813c 071d db3d
00000120: 9898 833b 618a ef3c a7db 241d ea02 0180
00000130: affe 0080 01e3 663c 9079 103a d3f7 c2b8
00000140: eb58 b63d 90b6 2bbb 780d a93c 2558 003c
00000150: b76c 823c f028 5a23 7a99 b83c acbc 8b3d
00000160: c118 c99d 76b3 b9b6 3e27 0500 8a73 0fb6
00000170: ebdd 0e3e 4168 5a3c cecc 0e3e d4e9 f13b
00000180: 023e 6e25 d5d0 4339 865d e03d 6cd2 c53c
00000190: e272 7ab8 70ce 0000 9bf9 f19b e7e7 1f3a
000001a0: 6ccc 9ebd e701 7b3c 4cfc 8cbc 766e c03d
000001b0: a89e 02be b3ea 0180 719f dc3c 4235 0380
000001c0: 3759 c1bb a66a e63d a73c 0500 2f17 8593
000001d0: 5308 0300 bb38 e93d 0040 962c 4032 7a39
000001e0: f293 ef3d 1a29 0300 dc61 76bb e621 103e
000001f0: 6ac2 a7bb d709 683d 3981 b13d 4ba5 d73b
00000200: 9f1a 0400 8a13 0180 0095 0829 e1b9 5db9
00000210: af21 373d 381f 3435 a78a 0580 b084 10be
00000220: 92a6 0380 c0eb 053d be0e 0580 3dbd 0180
00000230: c6a7 0100 4c05 a53c b4ec 823c 9690 b1ba
00000240: 3756 a5bd 588e 263d a945 4a3d f7f9 d03c
00000250: 871c 0200 8932 7481 569f 183c b093 0200
00000260: 2ba1 0080 ea18 1337 d065 0200 c7fa 3537
00000270: dda5 47be 8174 0080 0327 36be a9e9 0280
00000280: 3471 5225 016a 0732 00d4 3ebe 1613 303d
00000290: 5e87 da39 b2e2 0280 6ad7 5f1b 65f3 f4ba
000002a0: 840e f23d f2c4 0080 a9fd 933c a177 26be
000002b0: 8e03 4e3e 5929 0180 c69d 123d dd8d 5e01
000002c0: 2092 0300 8b93 44be 24cb 0480 cb4f bc1e
000002d0: 6c36 0380 8eac 27be 1442 5f31 731b c7b9
000002e0: c320 16be 8d2a 0100 93ab 1f3b cea8 3ebe
000002f0: bfbe 953c 6030 0100 a640 15be 80af 8c3c
00000300: d82c 0280 8b6a 223c 06f3 0ea8 9318 f435
00000310: f473 3bbc 50cb 1634 fc62 013c fd67 7c3a
00000320: 8c13 433c 7277 7abc ea67 0380 094d 0100
00000330: 1600 0180 514c a7bc 48ea cbbc 6fbe 6537
00000340: e6b5 03bc bdaf c1bb d083 60bc b6f9 a3bc
00000350: dbeb 4e3c d877 6783 4c1b 57bc d350 bd3b
00000360: 6ea1 0380 cae6 a1b3 f08d 0100 cc93 f22f
00000370: 95c6 713c 153f e73b 2c8f 653c 5d10 3b3c
00000380: 70e0 5622 23e2 6b34 caea 53bc 1f31 35bc
00000390: a6b5 b01d a47f 0380 deb9 0380 18f9 7c1d
000003a0: d218 0b3b f90b 4e3c f938 97bb 0ce3 0b3c
000003b0: 1590 dd92 1c5d 0280 331f 75bc c819 f715
000003c0: fb03 223c 57c8 cfbc ca1d 0180 b838 0700
000003d0: aa2c 0100 f3eb afbc 8628 8dae 2924 4b37
000003e0: 049c dcbb 73a8 0580 e14b 662a baba 073d
000003f0: c1c4 ccbc c949 623b 3425 29bc fde4 89bc
-3.3208055e-26 -0.08867751 0.00048250458 -0.006033246 0.106923774 0.0010720323 -0.08639186 0.032736685
-0.07592481 0.0908126 -3.138171e-07 5.7931e-41 4.06211e-40 0.18682094 0.19878978 -0.0022025057
0.030526202 0.18163195 0.11390779 0.2092385 -0.080882944 -9.810413e-08 0.10824371 -0.19251752
1.6213882e-08 2.3317662e-06 2.00712e-40 -2.188527e-06 0.024239613 -0.05261839 0.010906127 -0.067524344
-1.0014269e-15 -0.00778251 0.008336733 0.10668959 2.1592293e-06 -2.9686776e-31 8.0283425e-13 -6.725962e-07
0.007341076 -0.07563395 0.14790313 0.02160951 -0.0002794319 -5.705289e-34 0.09568495 -2.427957e-09
-0.051939007 0.01860736 3.92457e-40 1.3557364e-38 3.8792698e-11 0.021590551 -3.743267e-05 -0.011537607
0.0191246 -2.0355561e-20 0.01328837 0.03761034 0.21071608 -0.17142375 0.030836184 0.1626031
-5.72764e-40 0.006965836 -1.3902219e-09 0.0002071463 0.020701997 7.695598e-07 0.01576814 0.10698896
0.0040159933 0.029240789 2.1818777e-21 -9.2881e-41 -9.1363e-41 0.014092208 0.0005511278 -9.296802e-05
0.089036785 -0.0026201345 0.020636305 0.007833515 0.01592098 1.18264725e-17 0.02253412 0.06823096
-5.322985e-21 -5.5343216e-06 4.73255e-40 -2.1375913e-06 0.13951842 0.01333052 0.13945314 0.007382611
2.0664218e-16 0.00018674445 0.10955338 0.024148189 -5.9711638e-05 7.4056e-41 -4.003141e-22 0.0006099925
-0.07753834 0.015320278 -0.017210148 0.09396069 -0.12755835 -1.7603e-40 0.026931496 -2.94612e-40
-0.005900528 0.1125081 4.80935e-40 -3.359678e-27 2.78493e-40 0.113877736 4.270362e-12 0.00023860577
0.1169814 2.90251e-40 -0.003759495 0.14075431 -0.0051196115 0.05665001 0.086672254 0.0065809838
3.76892e-40 -9.8845e-41 3.0327303e-14 -0.00021145448 0.044709858 6.7100655e-07 -5.08917e-40 -0.14113116
-3.3526e-40 0.03269553 -4.64466e-40 -1.59721e-40 1.52021e-40 0.020144127 0.01598201 -0.0013547118
-0.08073085 0.040663093 0.04938284 0.025509818 1.93905e-40 -4.485198e-38 0.009315332 2.36651e-40
-5.7816e-41 8.7676835e-06 2.20194e-40 1.0846829e-05 -0.19496866 -4.1794e-41 -0.1778832 -2.67492e-40
1.8252951e-16 7.882137e-09 -0.18635559 0.04298695 0.00041681057 -2.64994e-40 1.8515732e-22 -0.001868826
0.11819175 -7.065e-41 0.01806529 -0.16256572 0.20118544 -1.06668e-40 0.035794996 4.0876742e-38
3.27926e-40 -0.19196908 -4.40215e-40 1.9938276e-20 -2.9503e-40 -0.16374418 3.2488332e-09 -0.0003797669
-0.14660935 1.071e-40 0.002436374 -0.18619081 0.018279431 1.09189e-40 -0.14575443 0.017173529
-1.99758e-40 0.009913097 -7.935281e-15 1.8186569e-06 -0.01144122 1.4043803e-07 0.007897135 0.00096285326
0.011906516 -0.015287267 -3.12784e-40 1.1947e-40 -9.1866e-41 -0.020422133 -0.024891987 1.3693802e-05
-0.008038973 -0.005910842 -0.013703302 -0.020016532 0.0126294745 -6.8022373e-37 -0.013129067 0.0057774573
-3.33417e-40 -7.539127e-08 1.42753e-40 4.412456e-10 0.014756818 0.0070570805 0.014011186 0.0114174755
2.9121224e-18 2.1968349e-07 -0.012934396 -0.011059075 4.6774632e-21 -3.21295e-40 -3.42183e-40 3.34807e-21
0.002122451 0.012576097 -0.004614946 0.008538019 -1.398258e-27 -2.17072e-40 -0.014961052 9.980318e-26
0.009888644 -0.025364084 -1.02522e-40 6.63195e-40 1.07858e-40 -0.021474814 -6.419136e-11 1.2108162e-05
-0.0067324657 -5.19606e-40 2.045443e-13 0.03313706 -0.024996163 0.0034528843 -0.010323811 -0.016832823

fc3.bias f4 [32]
00000000: 3fac c23e d002 bbbd c2a9 a93d f697 3fbd
00000010: 6477 88bd 1d67 01be 26a4 8fbd bb0a 41b3
00000020: 56ed fdbc 8a29 d13e 0bf8 abbd 3f58 52bd
00000030: d487 523e 468c 473e 58a2 96bd 70dc dd3d
00000040: f885 95bd 7fda 0cb4 bd60 2bbb 5e98 eabc
00000050: 3e83 4032 c6aa 45b7 e9c8 b23e 8979 a9be
00000060: 4137 563d 4882 f0bd dd96 c93e 7aa8 15bd
00000070: 0da6 363e 3af8 9e3e 39c5 85ba ebca 9e3e
0.38022038 -0.09131396 0.08284332 -0.04677578 -0.06663397 -0.12636991 -0.07013731 -4.4946074e-08
-0.03099696 0.40852004 -0.0839692 -0.05135369 0.20559627 0.19487104 -0.07355183 0.10833061
-0.07300943 -1.3118004e-07 -0.002615019 -0.028637107 1.1205712e-08 -1.1781876e-05 0.34918907 -0.33100536
0.052298788 -0.11743599 0.39372912 -0.036537625 0.17836781 0.31048757 -0.0010205872 0.3101419

fc4.weight f4 [15, 32]
00000000: f8e1 30b3 0018 fdb6 9959 0d80 b166 4207
00000010: 4c69 9bb6 4f51 beb7 7ba3 46b6 e824 94b5
00000020: 469a 6bb5 7888 5db5 71e1 30b9 c2f9 6cb1
00000030: fa1a f2b0 6986 2594 88e3 15b4 690c 3500
00000040: 36b0 88b4 5a41 08ae f265 88b4 ded0 1080
00000050: a771 b634 1f0d 0080 3982 bcb2 2c91 3ba7
00000060: ef8b 95a8 e978 95b6 2ebc 36b5 247c 15b6
00000070: 6ecb 5fb1 d929 82b2 2aa3 0200 ecf8 76b4
00000080: ec35 0a3e ea34 02bc b67c 19bd d492 a53c
00000090: e69c 9bbc 5c83 8abd a848 e13d d3d1 0db6
000000a0: 604f 29bc 69b9 583e 54b0 cf3d cae2 25bd
000000b0: fd57 c73d 92e1 e8bd f145 713d 5dda 72bd
000000c0: 9c4c dcbc a7d0 5ab4 54c0 07bc c7f7 d83c
000000d0: c1d2 b330 6dc2 beb3 3576 163e 64b1 77be
000000e0: 2912 1d3d e92e cfbd c60b 423e 466b 05bd
000000f0: 1f68 ca3d d9b3 cc3d f786 343c 2eb3 273e
00000100: ef17 b9bb 24ee 3abc 44a0 9139 8fbd 4738
00000110: c72c 25bc e69e 6cbc c593 23bc 1c90 ce37
00000120: 46dd 38bc 42b5 e8bb bb0f 54bc 1e56 69ba
00000130: c6c4 d8bb 5720 07b9 6751 01bc 2680 4939
00000140: 2f5e 57bb ec9c efb7 8166 6332 90fe 43b8
00000150: ac2c 96b0 d0e9 c51b f925 dfbb c9e3 e739
00000160: 4e48 53b8 5ce9 15bc 66ac d5bb 6904 9eb7
00000170: 3d80 f1bb 4914 a6bb 773a ebb2 89b7 dfbb
00000180: 7ace abbe f5ce 273e 5d03 0080 e2fc 453d
00000190: b3a4 243e b13c 2a3e ec4b 8e3c 3d79 1a3a
000001a0: 1a7d bf3b 600d febe 3915 243e f4f4 233d
000001b0: daa4 24be 5ba7 0200 35d3 353e 0476 0080
000001c0: 93c7 0a3e 3db4 3834 4801 9d3b 3583 b43b
000001d0: a4c8 c233 17b9 e836 af7b e9be 55b3 373f
000001e0: 53ae 283e 2460 e33d 4c96 efbe 778a 123d
000001f0: 10b5 1cbe 7455 8fbe 51d1 a53c 3d2b d6be
00000200: 2f77 853e 3c63 983c 9130 6b3b 0f03 bb3c
00000210: 8e95 0a3e e8ca 06bd a3f0 73bb a20c 48b9
00000220: 9128 19bd 193a bc3e e9b7 f83c c034 21bd
00000230: 9a5c 553e 4f45 ee3b 68f4 fd3b 9317 a03b
00000240: 489a 3bbc 53d4 6ab4 b913 debb 32ac acbb
00000250: 3cac b8b2 c6d5 c6b5 8059 783e aa9c abbe
00000260: c12c 023e 19c8 f2bd 66fb aa3e ada3 06bd
00000270: 9a69 6a3e 558c 733e 3789 ad3c fd79 8f3e
00000280: 5b93 d13e cb8e 0f3d c7e8 77bd 6f7a 44bd
00000290: 05b9 4dbe 9a55 a5be 93db bc3d 36d8 27bb
000002a0: 3fac 2dbf 7638 903e c9b6 fbbc cc96 babe
000002b0: b684 493e ce76 33be 06ab 21be 4a81 c3bd
000002c0: d016 e6be b736 b7b4 0955 fd3b 8449 3f3d
000002d0: 71ac 83b0 63b5 a738 ec27 823d 90cb aebb
000002e0: ff7f 253f ac5f 21bf f081 bf3e 39a5 01bc
000002f0: 127b f33d 3c28 b43e 3f74 8238 8396 883e
00000300: 2ec6 153d 6f1d 2f3e 6b6e 57be f803 bb3b
00000310: b118 0f3e 7830 393e c7c7 4a3e 5f8a 7e39
00000320: 8e98 393d 0cce 123e 9831 a43e cae1 c23c
00000330: 4676 f03d f5d2 21bf 6615 9f3d 49b8 aabe
00000340: 89a4 103d 47aa f7b2 a44f 31ba b0d3 083d
00000350: bc56 2733 7e7b 7bb7 edf0 7b3d 37d3 91bd
00000360: ac98 b63b 15d2 743d 731d 46bb 1d1b dbbc
00000370: b884 823d d3bd 403d f7af 3db9 a4df f63d
00000380: 25f5 2721 b8ba 09b2 4c8c f420 e28d 0200
00000390: 56b0 91b0 9bb8 85b3 8d9f 52b0 540e 0c80
000003a0: 8145 39b0 70bc 2322 992f 07b6 2607 d5a3
000003b0: 4067 70a1 3449 27a1 5ba6 76ac 2dcd 0f22
000003c0: a3d0 4dac 32af 7b2e 8492 6400 a094 5e1e
000003d0: 8a2d 1930 4836 0180 ac2c 2822 861b 590e
000003e0: 2355 8ca1 ea1a fbb1 d404 9621 7409 34b0
000003f0: 3594 a5a1 6df5 0022 60f0 0480 d061 e2a1
-4.118371e-08 -7.5427815e-06 -1.226003e-39 1.4625116e-34 -4.631618e-06 -2.2687627e-05 -2.9599457e-06 -1.10376e-06
-8.776882e-07 -8.2527504e-07 -0.00016868651 -3.448449e-09 -1.7615485e-09 -8.356879e-27 -1.3959482e-07 4.871733e-39
-2.5460184e-07 -3.0980864e-11 -2.540615e-07 -1.544295e-39 3.3982835e-07 -4.707e-42 -2.1945299e-08 -2.603016e-15
-1.660301e-14 -4.454622e-06 -6.807412e-07 -2.227499e-06 -3.2566407e-09 -1.5153022e-08 2.42203e-40 -2.3001093e-07
0.13497132 -0.007947186 -0.03747245 0.020211615 -0.018995713 -0.06763336 0.11000186 -2.113277e-06
-0.010333866 0.21164478 0.10141054 -0.040499486 0.09733579 -0.11371149 0.058904592 -0.05929028
-0.026891999 -2.037874e-07 -0.008285601 0.026485337 1.3083864e-09 -8.88293e-08 0.1469353 -0.24188763
0.038347397 -0.10116369 0.18949804 -0.032573007 0.09883141 0.09995241 0.011018506 0.16376945
-0.005648605 -0.011409316 0.00027775962 4.7621837e-05 -0.0100814765 -0.014442181 -0.0099839615 2.462422e-05
-0.011283224 -0.0071016857 -0.012943204 -0.0008901077 -0.006615254 -0.00012886651 -0.007892943 0.00019216593
-0.0032862534 -2.8564093e-05 1.3236446e-08 -4.6728703e-05 -1.0926633e-09 3.2742014e-22 -0.0068099466 0.00044229467
-5.037366e-05 -0.0091498755 -0.0065207956 -1.8837121e-05 -0.0073700235 -0.005068336 -2.7384187e-08 -0.006827299
-0.33555967 0.16387542 -1.207e-42 0.04833687 0.16078453 0.16624714 0.017370187 0.00058926997
0.0058437707 -0.4961958 0.16023721 0.040028527 -0.16078511 2.43707e-40 0.1775635 -4.2336e-41
0.13552694 1.7201906e-07 0.0047914125 0.005508805 9.070325e-08 6.935686e-06 -0.45602176 0.71758014
0.1647275 0.11102322 -0.46794355 0.03577658 -0.15303445 -0.27994883 0.020241411 -0.41829863
0.26067492 0.018602006 0.0035887102 0.022828607 0.13533613 -0.03290835 -0.0037222288 -0.00019078192
-0.037392203 0.36763075 0.030361133 -0.039356947 0.20836106 0.007271446 0.0077500828 0.0048856228
-0.011450358 -2.1870191e-07 -0.0067772535 -0.0052695507 -2.1498742e-08 -1.4814366e-06 0.24252892 -0.33517963
0.12712385 -0.11854572 0.33394927 -0.032870937 0.22891846 0.23784001 0.021183593 0.28022757
0.40932736 0.035048287 -0.06052473 -0.047968324 -0.2009011 -0.3229187 0.09221568 -0.002561105
-0.6784095 0.28168076 -0.030726807 -0.36443174 0.19679531 -0.17525789 -0.15787897 -0.09546144
-0.4493928 -3.4126217e-07 0.0077310842 0.04670097 -9.580515e-10 7.9969665e-05 0.06355271 -0.005334325
0.6464843 -0.6303661 0.37403822 -0.007912927 0.11888708 0.35186946 6.2205356e-05 0.2667733
0.036565952 0.17101072 -0.21038215 0.00570726 0.13974263 0.18084896 0.19802772 0.00024274875
0.045311503 0.14336413 0.32069087 0.023789305 0.11741309 -0.6321252 0.07767753 -0.33343723
0.035313163 -2.8832018e-08 -0.00067638815 0.033405006 3.8961602e-08 -1.4989519e-05 0.06150906 -0.07120364
0.005572399 0.059770662 -0.0030229955 -0.026746327 0.0637297 0.04705603 -0.00018089997 0.12054375
5.6906247e-19 -8.0169045e-09 4.1428049e-19 2.34569e-40 -1.0600256e-09 -6.226875e-08 -7.662429e-10 -1.107166e-39
-6.740138e-10 2.2190377e-18 -2.0144273e-06 -2.3096534e-17 -8.1451813e-19 -5.6678684e-19 -3.5051048e-12 1.9488733e-18
-2.9248069e-12 5.7226397e-11 9.23611e-39 1.1783317e-20 5.572579e-10 -1.11308e-40 2.2791895e-18 2.6760567e-30
-9.509305e-19 -7.308121e-09 1.0165673e-18 -6.549705e-10 -1.1220065e-18 1.7477162e-18 -4.53572e-40 -1.5340246e-18

fc4.bias f4 [15]
00000000: 2ea4 3daa 8878 033e 473e adbb 8f35 8ebe
00000010: 8b61 6c3e 0fe1 0f3e 960e 3dbb 471d 9d20
00000020: 0a29 7cae eba5 9c3c 1788 8a3e 5cb5 24bc
00000030: 3af4 c3bc c9a0 59ba de79 1abd
-1.6843533e-13 0.12838948 -0.005286965 -0.27775237 0.23084085 0.14050697 -0.0028847805 2.6616209e-19
-5.7334616e-11 0.019122085 0.27056953 -0.010053005 -0.023920167 -0.0008301852 -0.037713878

fc5.weight f4 [4, 15]
00000000: 5b2b 14b9 52c2 553e 5421 563a 2398 4bb9
00000010: e17a 8c3e eec7 b63e fb53 62bf 2711 7d8a
00000020: 49e8 96ae ff28 3fbc 8982 fb3e b5ca 4dbf
00000030: 6c00 9abf c3a8 893a 22a7 51bf b22f e539
00000040: 3721 a93e 8451 49ba b630 41bd 77c6 863e
00000050: b97a 113f d299 163d 1f3b d3a2 fc91 8a31
00000060: 95fe 41bf 8c7f d1be f00b 343e 024d 173e
00000070: 9e02 82b9 654d 10be c82c 473a f40a 123e
00000080: 5383 943b 6afb 44bf 373b 51bd c9e7 88bf
00000090: f9db 463e dff3 b639 3452 4036 00d9 873e
000000a0: bcd7 8d3e 3e80 9f3d fd01 c43d 946c 8ab9
000000b0: 109e 2b3e fd2f f3b8 910f bebe 105b 05bc
000000c0: 28a3 593f ed21 49bf 947f 41bd f64f a83d
000000d0: 1440 53b9 5ba5 a9b6 72af b73d 09a1 44bf
000000e0: 492d 363d 857a 573d d589 6036 8128 6a3e
-0.00014130531 0.20874909 0.00081684184 -0.00019416264 0.274375 0.3569941 -0.88409394 -1.2184733e-32
-6.8624724e-11 -0.011667489 0.49123028 -0.8038743 -1.2031379 0.0010502565 -0.8189565 0.0004371382
0.33033153 -0.0007679688 -0.047165595 0.26323292 0.56827885 0.03676779 -5.725426e-18 4.032925e-09
-0.75779086 -0.40917623 0.17582679 0.1477547 -0.00024797482 -0.14092024 0.00075979205 0.14261991
0.0045322566 -0.7694613 -0.051081862 -1.0695735 0.1941985 0.00034895443 2.8658078e-06 0.26532745
0.27703655 0.07788132 0.09570692 -0.00026402308 0.16759515 -0.000115960815 -0.3712125 -0.008139387
0.8501458 -0.7856739 -0.04724081 0.08218376 -0.00020146399 -5.0558424e-06 0.089690104 -0.7680822
0.04447678 0.052607078 3.345883e-06 0.22867014

fc5.bias f4 [4]
00000000: a829 d23d ee26 19bd 8524 2e3e a50e 3ebe
0.102618515 -0.037390642 0.17006119 -0.18560274
